mytutoring/chatbot/scripts/data.pth (torch, 4394 bytes, 6 tensors)

l1.weight f4 [8, 32]
0	0x3f0fa947	0.5611767
1	0x3d4a8639	0.04944441
2	0xbe88ffb0	-0.26757574
3	0xbe9161d3	-0.28394946
4	0xbddd2546	-0.10798125
5	0x3f564990	0.83706
6	0xbeb965b0	-0.36210394
7	0x3f4dfb10	0.80461216
8	0xbdca4461	-0.098763235
9	0xbd9c0397	-0.07617872
10	0x3f6830dc	0.90699553
11	0xbee0647c	-0.43826663
12	0x3e85bfc2	0.26122862
13	0xbee06645	-0.43828025
14	0xbee0670f	-0.43828627
15	0xbea50a67	-0.322345
16	0xbd459999	-0.048242185
17	0xbe2c2dc2	-0.1681433
18	0x3ed968bf	0.42462727
19	0x3eea09c9	0.4571059
20	0xbc20bc3e	-0.009810505
21	0x3cfcd792	0.03086451
22	0xbebfa4f3	-0.37430534
23	0xbeb48586	-0.3525812
24	0xbd89a1e9	-0.06720335
25	0xbe1f721c	-0.15570873
26	0x3f1adb22	0.6049062
27	0x3f179455	0.5921071
28	0x3ef5b1aa	0.4798711
29	0xbb278568	-0.0025561694
30	0x3db969da	0.09053393
31	0x3e2dc48d	0.1696951
32	0x3c1109a0	0.008852392
33	0xbdefbc32	-0.11705817
34	0xbde767e9	-0.11299116
35	0xbe1010de	-0.14068934
36	0x3dc1f59a	0.09470673
37	0x3f1535da	0.58285296
38	0xbe1c4e95	-0.15264352
39	0xbbe824e0	-0.007084474
40	0x3cd3f3bb	0.025873056
41	0xbe06305a	-0.13104382
42	0x3f1e16f8	0.617538
43	0xbe8c5799	-0.27410582
44	0x3e399c54	0.1812604
45	0xbe8c4cbc	-0.27402294
46	0xbe8c4e47	-0.2740347
47	0xbec1eda5	-0.3787662
48	0x3cae3550	0.021265656
49	0xbe653e74	-0.22387105
50	0x3e8468f4	0.25861323
51	0xbd850cc4	-0.064965755
52	0xbd844990	-0.064593434
53	0xbe3b9767	-0.18319474
54	0xbdde8055	-0.10864321
55	0xbbec382a	-0.0072088437
56	0x3bf3ea9d	0.0074437396
57	0xbc9f2358	-0.019426033
58	0x3f028a06	0.5099186
59	0x3f0a17f2	0.5394279
60	0x3ebe973f	0.37224767
61	0x3d80d42d	0.06290469
62	0xbe2d888c	-0.1694662
63	0x3eaf0852	0.34186035
64	0x3f0302a2	0.5117589
65	0x3f14e397	0.58159775
66	0xbe477ab4	-0.19480401
67	0xbe9f1df7	-0.3107755
68	0x3f00db67	0.5033478
69	0xbe2b5fa1	-0.16735698
70	0xbc3b2319	-0.011421942
71	0xbebfefbd	-0.37487593
72	0x3ef02233	0.46901092
73	0xbe68aefb	-0.22723
74	0xbe74e226	-0.23914394
75	0xbe7568b6	-0.23965725
76	0x3edeaf03	0.43492898
77	0xbe747bc2	-0.23875335
78	0xbe745d2b	-0.23863666
79	0xbe4e3c34	-0.20140153
80	0x3efe8388	0.49709725
81	0xbd506786	-0.050879978
82	0xbe195f3c	-0.14977735
83	0x3e5d788e	0.21628019
84	0x3f032355	0.5122579
85	0x3eee9ee3	0.46605596
86	0x3d6e1d3b	0.058133345
87	0x3f8a51cc	1.0806212
88	0x3ed605bb	0.41801247
89	0x3eff3a06	0.49848956
90	0xbeb8109f	-0.3595018
91	0x3f6ebcba	0.93256724
92	0x3f1778e5	0.59168845
93	0x3be4f739	0.006987479
94	0x3ec296e4	0.38005745
95	0x3e8c0be2	0.27352816
96	0x3f2115db	0.62923974
97	0x3f1190b3	0.5686142
98	0xbe405caf	-0.18785356
99	0xbf13b45d	-0.5769709
100	0x3e55a88e	0.2086508
101	0x3f0ca7d8	0.5494361
102	0xbe985cdd	-0.2975835
103	0x3e1d05ce	0.15334246
104	0x3ec92c2e	0.3929152
105	0xbe8d6799	-0.276181
106	0x3f15775c	0.5838525
107	0xbf135266	-0.57547605
108	0x3ed6a846	0.41925257
109	0xbf021e40	-0.5082741
110	0xbf18409d	-0.5947359
111	0xbf088b56	-0.5333761
112	0x3eadd325	0.33950153
113	0xbe3aaf79	-0.18231
114	0x3eb0f549	0.34562138
115	0x3ea53857	0.32269546
116	0x3e38d868	0.18051302
117	0x3e9f7fa4	0.3115207
118	0x3f3ea7c2	0.7447473
119	0xbe63f045	-0.22259624
120	0x3d77ae63	0.060469043
121	0x3e2135ba	0.15743151
122	0x3e70e0ac	0.23523206
123	0x3f3c42a7	0.73539203
124	0x3f18874f	0.59581465
125	0xbe22d7bf	-0.15902613
126	0x3e825607	0.2545626
127	0x3f04824e	0.5176133
128	0xbd8772b0	-0.06613672
129	0x3f2aef23	0.66771144
130	0xbe40b83c	-0.1882028
131	0x3d9349c3	0.07191803
132	0x3eacbad7	0.33736297
133	0xbe4c345f	-0.19941853
134	0xbdb66078	-0.08905119
135	0x3f8839e0	1.0642662
136	0x3eb76881	0.35821918
137	0xbddfe115	-0.10931603
138	0xbe4b1c50	-0.19835019
139	0xbdfabf5c	-0.1224353
140	0xbdeb6b73	-0.11495104
141	0xbe489b62	-0.19590524
142	0xbe4b48d1	-0.19851996
143	0xbe1b6ef4	-0.15179044
144	0x3ec6cecf	0.38829657
145	0x3c893732	0.016749952
146	0x3c3400db	0.010986532
147	0xbebda4f3	-0.3703991
148	0x3eb1229d	0.3459672
149	0x3f094d99	0.5363403
150	0xbf29bda7	-0.6630501
151	0x3f5a65aa	0.8531138
152	0x3eaa8534	0.3330475
153	0x3ec253e2	0.37954623
154	0xbd92660b	-0.071483694
155	0xbe4b43ca	-0.19850078
156	0xbc8d7c43	-0.017271167
157	0xbcdf04ce	-0.02722397
158	0x3ee3184d	0.44354478
159	0xbe0d383b	-0.13790981
160	0x3f3f0a0d	0.7462471
161	0x3e9da53c	0.30790126
162	0x3e062999	0.13101806
163	0x3e58a751	0.21157576
164	0x3ea294ac	0.31754053
165	0xbe7a2cbc	-0.24431127
166	0x3eb4de4e	0.35325855
167	0xbf0c7f98	-0.5488219
168	0x3e7c7cfa	0.2465705
169	0x3e290323	0.16505103
170	0xbefcc524	-0.49369156
171	0x3e8847db	0.2661732
172	0x3ed4bb6c	0.41549242
173	0x3e9e0093	0.30859813
174	0x3eb7a2ce	0.35866398
175	0x3e8b7f23	0.27245435
176	0x3e883bc3	0.26608095
177	0x3de6838f	0.112555616
178	0xbe5bfeed	-0.21483965
179	0x3e8c3da7	0.27390787
180	0x3e93490b	0.28766665
181	0x3ef467a8	0.47735333
182	0x3f5551d4	0.83327985
183	0xbef72f7c	-0.48278415
184	0x3e9b6130	0.30347586
185	0x3ecd8495	0.40140215
186	0xbeb0f7d5	-0.3456408
187	0x3f8f50bc	1.1196513
188	0x3ee14a4e	0.44002002
189	0x3e37f849	0.17965807
190	0x3eb502cb	0.35353693
191	0x3e89608b	0.2683147
192	0xbeaecc59	-0.3414028
193	0x3e329ec2	0.17443374
194	0x3ea9be82	0.33153158
195	0x3ef6b4cb	0.4818481
196	0x3e9762ca	0.29567558
197	0xbe8668eb	-0.2625192
198	0x3f0d1744	0.55113626
199	0x3ecca175	0.39966932
200	0x3e80b53e	0.25138277
201	0x3f00755a	0.50179064
202	0xbe3a50be	-0.18194863
203	0x3ed92753	0.42412814
204	0xbe5710c8	-0.21002495
205	0x3f27cd73	0.65547866
206	0x3efad294	0.48988783
207	0x3e8e89e8	0.2783959
208	0x3d694682	0.056952007
209	0x3ecfe50c	0.40604436
210	0xbcd27368	-0.025689796
211	0xbe2abbe6	-0.1667324
212	0x3def8f57	0.11697262
213	0x3e1b2a83	0.15152936
214	0x3f814e13	1.0101951
215	0xbf0f472c	-0.55967975
216	0x3dfe8b0b	0.12428864
217	0x3e752f45	0.23943813
218	0xbcefd33e	-0.029275533
219	0xbf400780	-0.75011444
220	0xbdd69a90	-0.10478699
221	0x3f0ce444	0.55035806
222	0x3e7d6331	0.2474487
223	0x3df42367	0.11920815
224	0xbe13f76a	-0.1444985
225	0x3c911aa5	0.0177129
226	0x3e2a0b3e	0.16605851
227	0x3ef7e248	0.48414826
228	0xbd87fc5b	-0.0663993
229	0x3f33ef52	0.7028705
230	0x3efe2629	0.4963849
231	0x3f5728a8	0.8404641
232	0xbc475e26	-0.012168443
233	0x3e220f60	0.15826178
234	0x3f002ddd	0.5006998
235	0x3edca408	0.43093896
236	0xbec3c7ad	-0.38238278
237	0x3ef4d625	0.4781963
238	0x3ed8e9a7	0.42365763
239	0x3ec81ab8	0.39082885
240	0x3d2a8385	0.041629333
241	0x3e38d992	0.18051746
242	0x3efeee38	0.4979112
243	0xbdc28654	-0.09498277
244	0x3e4b49fe	0.19852445
245	0x3dab4230	0.08362234
246	0xbf012625	-0.5044883
247	0xbf51a7ed	-0.8189686
248	0x3dad50f4	0.08462706
249	0x3ddbe05d	0.10736153
250	0x3eee6ae6	0.46565932
251	0xbf25331d	-0.6453112
252	0xbdf26513	-0.118356846
253	0x3e7049e6	0.2346569
254	0x3bde6d32	0.0067879194
255	0x3d600606	0.054693244

l1.bias f4 [8]
0	0x3ee064bb	0.4382685
1	0x3e8c46a0	0.27397633
2	0x3e745c41	0.23863317
3	0x3f209f68	0.62743235
4	0x3e4b12e2	0.19831422
5	0x3efc9b0f	0.4933705
6	0x3f4003bb	0.7500569
7	0x3f2531f9	0.6452938

l2.weight f4 [8, 8]
0	0x3f316f28	0.69310236
1	0x3e8721e1	0.26393035
2	0xbf4fb60d	-0.8113716
3	0x3e0dfa51	0.1386502
4	0x3f1bf487	0.60919994
5	0xbec55324	-0.38539994
6	0x3f3fd1ba	0.7492939
7	0x3fa80f91	1.312975
8	0x3f0890d2	0.5334598
9	0x3f4c1340	0.79716873
10	0xbd64e13d	-0.055878866
11	0x3f810ed8	1.0082655
12	0xbf6dc5b3	-0.9287979
13	0x3f5d5f54	0.86473584
14	0xbebf0918	-0.37311625
15	0xbe8abc76	-0.2709691
16	0x3ee3eda2	0.44517237
17	0x3e2ca3cb	0.16859357
18	0xbe053b7a	-0.1301097
19	0x3f19651c	0.59919906
20	0xbf206240	-0.6264992
21	0x3f813ccb	1.0096678
22	0xbe13eb86	-0.14445314
23	0xbeb6c0e5	-0.35694042
24	0xbe834705	-0.2564012
25	0xbe85c5b1	-0.2612739
26	0xbf6b3d6e	-0.9189061
27	0x3e3de836	0.18545613
28	0x3e2f6f1c	0.17132229
29	0x3edbe9c2	0.4295178
30	0x3f90c474	1.1309953
31	0x3f849ea3	1.0360912
32	0x3f481384	0.7815478
33	0x3f24986c	0.6429508
34	0x3e77e861	0.2420974
35	0x3f648ae6	0.8927444
36	0xbf83ad32	-1.028723
37	0xbe1788f4	-0.14798337
38	0xbf294a71	-0.66129214
39	0x3f009f23	0.50242823
40	0xbe1aff11	-0.15136363
41	0xbdf6445a	-0.12024756
42	0x3f9c888b	1.222917
43	0x3f6f2f49	0.93431526
44	0x3f647c78	0.89252424
45	0x3f62a953	0.8853962
46	0xbca87dfb	-0.020567885
47	0xbf2579c0	-0.646389
48	0xbf8d7c03	-1.105347
49	0xbecff442	-0.4061604
50	0xbdf4e0eb	-0.11956962
51	0x3d47776f	0.048697885
52	0xbf4dab93	-0.80339926
53	0x3f415423	0.7551901
54	0x3f93f063	1.1557735
55	0x3e0a3aa2	0.13498929
56	0xbe9fea8e	-0.3123364
57	0x3e68817e	0.22705647
58	0x3d993304	0.074804336
59	0xbe3e057a	-0.18556777
60	0xbea8bed1	-0.3295808
61	0xbe66b838	-0.22531211
62	0xbe7d75a4	-0.24751908
63	0xbdac09fc	-0.08400342

l2.bias f4 [8]
0	0x3ee87222	0.45399576
1	0x3eaba9a3	0.3352786
2	0xbb083eb2	-0.0020789322
3	0x3f176eff	0.5915374
4	0x3ec26d80	0.37974167
5	0xbd8c8d21	-0.06862856
6	0x3f19132f	0.59794897
7	0xbe42e429	-0.19032349

l3.weight f4 [6, 8]
0	0x3e7cde8b	0.24694268
1	0xbf6103e5	-0.8789657
2	0xbfa572cd	-1.292566
3	0x3f06c0cf	0.5263795
4	0xbf3e3540	-0.74300003
5	0x3e5b15e4	0.2139507
6	0xbf5c9e26	-0.86178815
7	0x3da8650c	0.08222398
8	0x3ed7c80f	0.4214482
9	0x3f14e73c	0.58165336
10	0xbe3db7eb	-0.1852719
11	0xbe492ec0	-0.1964674
12	0x3f17b47b	0.59259766
13	0xbf904fed	-1.1274391
14	0xbf80e54d	-1.0069977
15	0xbd2f7610	-0.042837203
16	0x3e80a84d	0.25128403
17	0xbf1caaeb	-0.611983
18	0xbf319fff	-0.6938476
19	0x3f62188c	0.88318706
20	0xbfa09140	-1.2544327
21	0xbf9840bb	-1.1894754
22	0x3f63f9e3	0.8905317
23	0xbe4b67bd	-0.19863792
24	0xbf933077	-1.1499165
25	0x3ed51be1	0.41622832
26	0x3e1c7777	0.15279947
27	0xbe63aba4	-0.22233444
28	0xbfa5c7a5	-1.2951552
29	0x3dfce5e8	0.12348539
30	0x3f259306	0.64677465
31	0x3e7a5d2e	0.24449608
32	0xbfac9912	-1.3484213
33	0xbf0d2bf8	-0.55145216
34	0xbf8750ff	-1.0571593
35	0xbf58da34	-0.8470795
36	0xbf49db42	-0.78850186
37	0x3f75f507	0.9607701
38	0xbf8f08a3	-1.1174511
39	0x3e811f13	0.2521902
40	0xbf83fe2b	-1.0311941
41	0x3f38b96b	0.72157925
42	0x3f06db7e	0.5267867
43	0xbf9e5103	-1.2368473
44	0x3ec96e42	0.39341933
45	0x3d013268	0.03154221
46	0xbf45a25a	-0.77200854
47	0x3db85b6c	0.09001812

l3.bias f4 [6]
0	0xbeeb9a72	-0.4601627
1	0xbd262b43	-0.0405686
2	0x3dc7b9f0	0.09752262
3	0xbe3ad7ca	-0.1824638
4	0xbca58771	-0.020206185
5	0xbc6bbfe2	-0.01438901
